…
The sparsity of the dataset: 99.97990552482683%
04 Mar 21:50    INFO 

=================================


04 Mar 21:50    INFO =========1/1: Parameters:['seed']=(999,)=======
/media/data1/hy/OrangeMML/TAMER/models/tamer.py:293: UserWarning: torch.sparse.SparseTensor(indices, values, shape, *, device=) is deprecated.  Please use torch.sparse_coo_tensor(indices, values, shape, dtype=, device=). (Triggered internally at /opt/conda/conda-bld/pytorch_1724789115370/work/torch/csrc/utils/tensor_new.cpp:641.)
  adj = torch.sparse.FloatTensor(indices, torch.ones_like(indices[0]), adj_size)
04 Mar 21:50    INFO TAMER(
  (MLP_v): Linear(in_features=64, out_features=64, bias=False)
  (MLP_t): Linear(in_features=64, out_features=64, bias=False)
  (image_embedding): Embedding(7050, 4096)
  (p_embedding): Embedding(7050, 100)
  (z_embedding): Embedding(7050, 384)
  (v_gcn): GCN(
    (MLP): Linear(in_features=4096, out_features=256, bias=True)
    (MLP_1): Linear(in_features=256, out_features=64, bias=True)
    (conv_embed_1): Base_gcn(64, 64)
    (ID_embedding): Embedding(7050, 64)
  )
  (p_gcn): GCN(
    (MLP): Linear(in_features=100, out_features=256, bias=True)
    (MLP_1): Linear(in_features=256, out_features=64, bias=True)
    (conv_embed_1): Base_gcn(64, 64)
    (ID_embedding): Embedding(7050, 64)
  )
  (z_gcn): GCN(
    (MLP): Linear(in_features=384, out_features=256, bias=True)
    (MLP_1): Linear(in_features=256, out_features=64, bias=True)
    (conv_embed_1): Base_gcn(64, 64)
    (ID_embedding): Embedding(7050, 64)
  )
)
Trainable parameters: 38665168
04 Mar 21:50    INFO epoch 0 training [time: 1.96s, train loss: 48.7134]
04 Mar 21:51    INFO epoch 0 evaluating [time: 2.05s, valid_score: 0.015000]
04 Mar 21:51    INFO valid result: 
recall@10: 0.0097    recall@20: 0.0150    ndcg@10: 0.0052    ndcg@20: 0.0066    
04 Mar 21:51    INFO test result: 
recall@10: 0.0103    recall@20: 0.0161    ndcg@10: 0.0056    ndcg@20: 0.0071    
…
