…
The sparsity of the dataset: 99.9933768849102%
Tue 18 Nov 2025 09:05:51 INFO 
====Testing====
Microlens
The number of users: 98129
Average actions of users: 1.05971731088669
The number of items: 15709
Average actions of items: 6.619708447386849
The number of inters: 103989
The sparsity of the dataset: 99.99325407530151%
Tue 18 Nov 2025 09:05:57 INFO 

=================================


Tue 18 Nov 2025 09:05:57 INFO =========1/16: Parameters:['knn_k', 'learning_rate', 'reg_weight', 'gamma', 'tau', 'degree_n', 'num_of_session_k', 'seed']=(10, 0.0001, 0.1, 0.2, 0.7, 3, 10, 999)=======
Tue 18 Nov 2025 09:06:11 INFO TAMER(
  (MLP_v): Linear(in_features=64, out_features=64, bias=False)
  (MLP_t): Linear(in_features=64, out_features=64, bias=False)
  (ip_embedding): Embedding(17228, 100)
  (iz_embedding): Embedding(17228, 1024)
  (tp_embedding): Embedding(17228, 100)
  (tz_embedding): Embedding(17228, 1024)
  (vp_embedding): Embedding(17228, 768)
  (vz_embedding): Embedding(17228, 100)
  (ip_gcn): GCN(
    (MLP): Linear(in_features=100, out_features=256, bias=True)
    (MLP_1): Linear(in_features=256, out_features=64, bias=True)
    (conv_embed_1): Base_gcn(64, 64)
    (ID_embedding): Embedding(17228, 64)
  )
  (iz_gcn): GCN(
    (MLP): Linear(in_features=1024, out_features=256, bias=True)
    (MLP_1): Linear(in_features=256, out_features=64, bias=True)
    (conv_embed_1): Base_gcn(64, 64)
    (ID_embedding): Embedding(17228, 64)
  )
  (tp_gcn): GCN(
    (MLP): Linear(in_features=100, out_features=256, bias=True)
    (MLP_1): Linear(in_features=256, out_features=64, bias=True)
    (conv_embed_1): Base_gcn(64, 64)
    (ID_embedding): Embedding(17228, 64)
  )
  (tz_gcn): GCN(
    (MLP): Linear(in_features=1024, out_features=256, bias=True)
    (MLP_1): Linear(in_features=256, out_features=64, bias=True)
    (conv_embed_1): Base_gcn(64, 64)
    (ID_embedding): Embedding(17228, 64)
  )
  (vp_gcn): GCN(
    (MLP): Linear(in_features=768, out_features=256, bias=True)
    (MLP_1): Linear(in_features=256, out_features=64, bias=True)
    (conv_embed_1): Base_gcn(64, 64)
    (ID_embedding): Embedding(17228, 64)
  )
  (vz_gcn): GCN(
    (MLP): Linear(in_features=100, out_features=256, bias=True)
    (MLP_1): Linear(in_features=256, out_features=64, bias=True)
    (conv_embed_1): Base_gcn(64, 64)
    (ID_embedding): Embedding(17228, 64)
  )
)
Trainable parameters: 99474440
Tue 18 Nov 2025 09:06:31 INFO epoch 0 training [time: 19.82s, train loss: 138.6168]
Tue 18 Nov 2025 09:06:36 INFO epoch 0 evaluating [time: 2.63s, valid_score: 0.069700]
Tue 18 Nov 2025 09:06:36 INFO valid result: 
recall@10: 0.0442    recall@20: 0.0697    ndcg@10: 0.0220    ndcg@20: 0.0285    
Tue 18 Nov 2025 09:06:36 INFO test result: 
recall@10: 0.0439    recall@20: 0.0697    ndcg@10: 0.0225    ndcg@20: 0.0292    
…
