…
The number of items: 13738
Average actions of items: 2.9137429028970736
The number of inters: 40029
The sparsity of the dataset: 99.99181486908563%
Thu 20 Mar 2025 14:06:52 INFO 

=================================


Thu 20 Mar 2025 14:06:52 INFO =========1/9: Parameters:['alpha_image', 'alpha_text_p', 'alpha_text_z', 'alpha_interest', 'k', 'u_layers', 'n_mm_layers', 'knn_k', 'aggr_mode', 'learning_rate', 'reg_weight', 'gamma', 'theta', 'tau', 'degree_n', 'num_of_session_k', 'seed']=(0.1, 0.5, 0.1, 0.3, 30, 1, 1, 10, 'add', 0.0001, 0.1, 0.1, 1, 0.6, 3, 10, 999)=======
Thu 20 Mar 2025 14:06:59 INFO TAMER(
  (MLP_v): Linear(in_features=64, out_features=64, bias=False)
  (MLP_t): Linear(in_features=64, out_features=64, bias=False)
  (image_embedding): Embedding(18357, 4096)
  (p_embedding): Embedding(18357, 100)
  (z_embedding): Embedding(18357, 384)
  (v_gcn): GCN(
    (MLP): Linear(in_features=4096, out_features=256, bias=True)
    (MLP_1): Linear(in_features=256, out_features=64, bias=True)
    (conv_embed_1): Base_gcn(64, 64)
    (ID_embedding): Embedding(18357, 64)
  )
  (p_gcn): GCN(
    (MLP): Linear(in_features=100, out_features=256, bias=True)
    (MLP_1): Linear(in_features=256, out_features=64, bias=True)
    (conv_embed_1): Base_gcn(64, 64)
    (ID_embedding): Embedding(18357, 64)
  )
  (z_gcn): GCN(
    (MLP): Linear(in_features=384, out_features=256, bias=True)
    (MLP_1): Linear(in_features=256, out_features=64, bias=True)
    (conv_embed_1): Base_gcn(64, 64)
    (ID_embedding): Embedding(18357, 64)
  )
)
Trainable parameters: 95772007
Thu 20 Mar 2025 14:07:01 INFO epoch 0 training [time: 2.18s, train loss: 78.1106]
Thu 20 Mar 2025 14:07:03 INFO epoch 0 evaluating [time: 1.01s, valid_score: 0.046900]
Thu 20 Mar 2025 14:07:03 INFO valid result: 
recall@10: 0.0323    recall@20: 0.0469    ndcg@10: 0.0178    ndcg@20: 0.0215    
Thu 20 Mar 2025 14:07:03 INFO test result: 
recall@10: 0.0313    recall@20: 0.0467    ndcg@10: 0.0176    ndcg@20: 0.0215    
…
