…
The number of items: 5549
Average actions of items: 3.907370697422959
The number of inters: 21682
The sparsity of the dataset: 99.97990552482683%
Tue 11 Mar 2025 02:33:34 INFO 

=================================


Tue 11 Mar 2025 02:33:34 INFO =========1/25: Parameters:['alpha_image', 'alpha_text_p', 'alpha_text_z', 'alpha_interest', 'k', 'u_layers', 'n_mm_layers', 'knn_k', 'aggr_mode', 'reg_weight', 'learning_rate', 'gamma', 'theta', 'tau', 'degree_n', 'num_of_session_k', 'seed']=(0.1, 0.7, 0.1, 0.1, 30, 1, 1, 10, 'add', 0.1, 0.0001, 0.3, 1, 0.7, 3, 10, 999)=======
Tue 11 Mar 2025 02:33:36 INFO TAMER(
  (MLP_v): Linear(in_features=64, out_features=64, bias=False)
  (MLP_t): Linear(in_features=64, out_features=64, bias=False)
  (image_embedding): Embedding(7050, 4096)
  (p_embedding): Embedding(7050, 100)
  (z_embedding): Embedding(7050, 384)
  (v_gcn): GCN(
    (MLP): Linear(in_features=4096, out_features=256, bias=True)
    (MLP_1): Linear(in_features=256, out_features=64, bias=True)
    (conv_embed_1): Base_gcn(64, 64)
    (ID_embedding): Embedding(7050, 64)
  )
  (p_gcn): GCN(
    (MLP): Linear(in_features=100, out_features=256, bias=True)
    (MLP_1): Linear(in_features=256, out_features=64, bias=True)
    (conv_embed_1): Base_gcn(64, 64)
    (ID_embedding): Embedding(7050, 64)
  )
  (z_gcn): GCN(
    (MLP): Linear(in_features=384, out_features=256, bias=True)
    (MLP_1): Linear(in_features=256, out_features=64, bias=True)
    (conv_embed_1): Base_gcn(64, 64)
    (ID_embedding): Embedding(7050, 64)
  )
)
Trainable parameters: 38665168
Tue 11 Mar 2025 02:33:37 INFO epoch 0 training [time: 0.95s, train loss: 49.3639]
Tue 11 Mar 2025 02:33:38 INFO epoch 0 evaluating [time: 0.50s, valid_score: 0.015100]
Tue 11 Mar 2025 02:33:38 INFO valid result: 
recall@10: 0.0096    recall@20: 0.0151    ndcg@10: 0.0052    ndcg@20: 0.0066    
Tue 11 Mar 2025 02:33:38 INFO test result: 
recall@10: 0.0104    recall@20: 0.0160    ndcg@10: 0.0056    ndcg@20: 0.0071    
…
