…
The number of items: 48794
Average actions of items: 4.57947698487519
The number of inters: 223451
The sparsity of the dataset: 99.99761985156943%
Sat 15 Mar 2025 01:53:22 INFO 

=================================


Sat 15 Mar 2025 01:53:22 INFO =========1/25: Parameters:['alpha_image', 'alpha_text_p', 'alpha_text_z', 'alpha_interest', 'k', 'u_layers', 'n_mm_layers', 'knn_k', 'aggr_mode', 'learning_rate', 'reg_weight', 'gamma', 'theta', 'tau', 'degree_n', 'num_of_session_k', 'seed']=(0.1, 0.4, 0.2, 0.3, 30, 1, 1, 10, 'add', 0.0001, 0.1, 0.3, 1, 0.7, 3, 10, 999)=======
Sat 15 Mar 2025 01:54:57 INFO TAMER(
  (MLP_v): Linear(in_features=64, out_features=64, bias=False)
  (MLP_t): Linear(in_features=64, out_features=64, bias=False)
  (image_embedding): Embedding(63001, 4096)
  (p_embedding): Embedding(63001, 100)
  (z_embedding): Embedding(63001, 384)
  (v_gcn): GCN(
    (MLP): Linear(in_features=4096, out_features=256, bias=True)
    (MLP_1): Linear(in_features=256, out_features=64, bias=True)
    (conv_embed_1): Base_gcn(64, 64)
    (ID_embedding): Embedding(63001, 64)
  )
  (p_gcn): GCN(
    (MLP): Linear(in_features=100, out_features=256, bias=True)
    (MLP_1): Linear(in_features=256, out_features=64, bias=True)
    (conv_embed_1): Base_gcn(64, 64)
    (ID_embedding): Embedding(63001, 64)
  )
  (z_gcn): GCN(
    (MLP): Linear(in_features=384, out_features=256, bias=True)
    (MLP_1): Linear(in_features=256, out_features=64, bias=True)
    (conv_embed_1): Base_gcn(64, 64)
    (ID_embedding): Embedding(63001, 64)
  )
)
Trainable parameters: 339390150
Sat 15 Mar 2025 01:56:12 INFO epoch 0 training [time: 75.69s, train loss: 242.8319]
Sat 15 Mar 2025 01:56:23 INFO epoch 0 evaluating [time: 5.53s, valid_score: 0.048400]
Sat 15 Mar 2025 01:56:23 INFO valid result: 
recall@10: 0.0321    recall@20: 0.0484    ndcg@10: 0.0179    ndcg@20: 0.0220    
Sat 15 Mar 2025 01:56:23 INFO test result: 
recall@10: 0.0323    recall@20: 0.0484    ndcg@10: 0.0179    ndcg@20: 0.0221    
…
