…
The number of items: 5483
Average actions of items: 3.749589640707642
The number of inters: 20559
The sparsity of the dataset: 99.98071694707788%
Wed 04 Mar 2026 21:50:32 INFO 
====Testing====
Baby
The number of users: 19445
Average actions of users: 1.1150424273592183
The number of items: 5549
Average actions of items: 3.907370697422959
The number of inters: 21682
The sparsity of the dataset: 99.97990552482683%
Wed 04 Mar 2026 21:50:43 INFO 

=================================


Wed 04 Mar 2026 21:50:43 INFO =========1/1: Parameters:['seed']=(999,)=======
Wed 04 Mar 2026 21:50:55 INFO TAMER(
  (MLP_v): Linear(in_features=64, out_features=64, bias=False)
  (MLP_t): Linear(in_features=64, out_features=64, bias=False)
  (image_embedding): Embedding(7050, 4096)
  (p_embedding): Embedding(7050, 100)
  (z_embedding): Embedding(7050, 384)
  (v_gcn): GCN(
    (MLP): Linear(in_features=4096, out_features=256, bias=True)
    (MLP_1): Linear(in_features=256, out_features=64, bias=True)
    (conv_embed_1): Base_gcn(64, 64)
    (ID_embedding): Embedding(7050, 64)
  )
  (p_gcn): GCN(
    (MLP): Linear(in_features=100, out_features=256, bias=True)
    (MLP_1): Linear(in_features=256, out_features=64, bias=True)
    (conv_embed_1): Base_gcn(64, 64)
    (ID_embedding): Embedding(7050, 64)
  )
  (z_gcn): GCN(
    (MLP): Linear(in_features=384, out_features=256, bias=True)
    (MLP_1): Linear(in_features=256, out_features=64, bias=True)
    (conv_embed_1): Base_gcn(64, 64)
    (ID_embedding): Embedding(7050, 64)
  )
)
Trainable parameters: 38665168
Wed 04 Mar 2026 21:50:57 INFO epoch 0 training [time: 1.96s, train loss: 48.7134]
Wed 04 Mar 2026 21:51:01 INFO epoch 0 evaluating [time: 2.05s, valid_score: 0.015000]
Wed 04 Mar 2026 21:51:01 INFO valid result: 
recall@10: 0.0097    recall@20: 0.0150    ndcg@10: 0.0052    ndcg@20: 0.0066    
Wed 04 Mar 2026 21:51:01 INFO test result: 
recall@10: 0.0103    recall@20: 0.0161    ndcg@10: 0.0056    ndcg@20: 0.0071    
…
